app/src/main/assets/sentiment_model.tflite (tflite, 654192 bytes, 6 tensors)

arith.constant f4 [128]
000000 bd 95 6c 3d 3c ca d3 3b ec 11 2a 3d 7e a1 05 3d
       0.05775999 0.006463317 0.041520998 0.032624714
000010 4b e5 73 3d 97 2c 6f 3d c1 67 45 3d 71 2f 07 3d
       0.059544843 0.058392134 0.04819465 0.033004228
000020 94 1d 3c 3d 55 ee 15 3c 9d 4a 15 3d dd 46 c8 3c
       0.045926645 0.009151061 0.03644811 0.024447853
000030 27 7c 8f 3d 28 55 2c 3d 0a 9a 5b 3d a8 4d 21 3d
       0.07006102 0.0420734 0.0536137 0.0393807
000040 e4 e6 d4 3c 66 ee eb b9 1b 27 45 3d 82 be cd 3b
       0.025989003 -0.00045000314 0.048132997 0.006278814
000050 b7 97 79 3d cb d8 e4 3c c2 a5 46 3d 65 9a 45 3d
       0.060935702 0.027935406 0.048497923 0.048242945
000060 5c e3 cc 3c a0 80 82 3c f7 76 fb 3c bb 89 42 3d
       0.025010757 0.015930474 0.030696375 0.04749463
000070 b5 c5 43 3d d3 d8 78 3d 7b b8 c4 3c 77 46 1b 3d
       0.04779597 0.060753655 0.024013748 0.037908997
000080 12 80 45 3d d4 76 58 3d 08 24 3a 3d 52 4a dc 3c
       0.04821784 0.0528477 0.04544452 0.026890907
000090 9f 05 14 3d be e2 c3 bb e0 ab 7d 3d b0 97 84 3d
       0.036138173 -0.0059779575 0.06193149 0.064742446
0000a0 62 1c 5c 3d 62 c7 30 3d 4e 0f b5 3c ae a2 3f 3d
       0.053738005 0.043158896 0.022102024 0.046786003
0000b0 50 af f0 bb f2 df 68 3d 42 dc 60 3d 4c 00 51 3d
       -0.0073451176 0.056854196 0.054897554 0.051025674
0000c0 4d 3a 4a 3d d9 8f 64 3d 25 99 2f 3d dc 1d 0a 3d
       0.049372006 0.055801246 0.04287066 0.033719882
0000d0 5c 56 19 3d 10 84 4e 3d c6 e1 5d 3d 5b fe 6d 3d
       0.037435874 0.050418913 0.054170392 0.0581039
0000e0 5d 63 b4 3c 6d ad 67 3c bf b0 6c 3d df 93 54 3d
       0.022020036 0.014140469 0.057785746 0.051898833
0000f0 41 26 26 3d 25 ea 3e 3d 1d 06 9c 3b b9 9b 2d 3b
       0.040563826 0.046610016 0.004761471 0.0026490523
000100 af 4a 05 3d 40 ce 67 3d f9 94 55 3d 55 e8 36 3d
       0.032541927 0.05659318 0.052144025 0.044655163
000110 21 ab b7 3c 16 58 76 3d f2 7f 40 3d eb 77 5d 3d
       0.022420468 0.0601426 0.04699702 0.05406944
000120 e0 ea d1 3c 83 da a9 3a f2 01 3a 3b 71 f0 42 3d
       0.025624692 0.0012958798 0.0028382507 0.047592584
000130 52 b7 1d 3d 8e b5 1b 3d ce f5 43 3d 51 2d 78 3d
       0.038504906 0.03801494 0.04784184 0.060590092
000140 e2 cb 3d 3d b0 aa 86 3d f0 fe 45 3d 85 fc 61 3d
       0.046337016 0.06575525 0.04833883 0.055172462
000150 21 c9 29 3d f8 de 71 3d fe 3e 2e 3d 49 13 70 3c
       0.041451577 0.05905053 0.042540543 0.014653035
000160 39 be 2a 3d 60 a1 f9 3c 39 d9 27 3d de df c3 3c
       0.041685317 0.030472457 0.040978644 0.02391046
000170 1b dd 96 3d 8f 38 2f 3d c0 78 6f 3d a3 8d 81 3d
       0.07366391 0.042778548 0.058464766 0.06325843
000180 8f df 73 3d 33 a9 4a 3d 7f dd 75 3c af 34 c1 3b
       0.059539374 0.049477767 0.015006422 0.005896173
000190 aa cf 4f 3d 1f ab e1 bc 17 22 e2 bb 03 82 05 3d
       0.050735153 -0.027547417 -0.0069010365 0.032594692
0001a0 a0 8e 2d 3d 32 cd a5 39 90 fd 83 3c ae 31 49 3d
       0.042372346 0.00031624135 0.016112119 0.049119644
0001b0 28 9c 8a 3d 06 7f 79 3d cc c7 c6 3c 95 75 70 3d
       0.06768066 0.060912155 0.024265192 0.058705885
0001c0 96 f7 54 3d ec 58 37 3d c1 3f 34 3d 3a 4c c2 3c
       0.05199393 0.044762537 0.044006113 0.023717988
0001d0 dd f8 77 3d d8 19 78 3d b7 fb 02 3d 8a c2 3f 3c
       0.06054007 0.06057152 0.031978335 0.011704097
0001e0 56 06 0d 3d d0 6b b9 3c 3b 31 71 3d ce 82 84 3d
       0.03442987 0.022634417 0.05888484 0.064702615
0001f0 57 16 a4 3c 04 d2 0b 3c 89 ea 33 3d 6e 84 53 3d
       0.020030184 0.008533958 0.043924842 0.051639967

arith.constant1 f4 [64]
000000 ca b9 a4 3d 9c d9 85 3c cf 35 29 bb 06 ff ac 3d
       0.08043249 0.016339116 -0.0025819426 0.08447079
000010 79 fa 2d 3d 69 60 dd 3c 64 7d b9 3d 4b 26 7d 3d
       0.042475197 0.027023511 0.090571195 0.061804097
000020 8a 5a 53 3d 47 ec 83 3d 22 61 08 3c 89 e7 87 3d
       0.051600017 0.06441551 0.0083239395 0.06635959
000030 3c c6 96 bb 8e 01 71 3d e5 9a d2 3c 67 02 38 3d
       -0.004601268 0.058839373 0.025708625 0.044924166
000040 b0 c0 0d 3e ea 7f dc 3d 0a 67 fd 3d 62 f4 57 3c
       0.13843036 0.10766585 0.12373169 0.013180824
000050 89 75 85 3d 79 df 68 3d 81 4d a0 3c 0d 25 95 3d
       0.06516559 0.056853745 0.019568207 0.072824575
000060 a3 05 b8 3c 19 86 f8 ba c7 bb 69 3d 0c 32 9b 3d
       0.022463625 -0.0018960863 0.057063844 0.07577905
000070 20 9a 5e 3d c5 4e 48 3d f7 35 9f bb 00 4f 8a 3d
       0.054346204 0.048903245 -0.004858728 0.06753349
000080 0b ba 07 3e 97 e2 87 3d 35 17 a5 bc 37 80 41 3d
       0.13254564 0.066350155 -0.020152668 0.047241416
000090 8f 57 da 3c 9e bf ad bb 22 df 9f 3d d5 1d 0c 3e
       0.02665308 -0.0053023836 0.07806231 0.13683255
0000a0 b3 db 55 3d e3 4b 98 bc e7 db 06 3e 75 22 7a 3d
       0.052211475 -0.018590873 0.13169824 0.061068017
0000b0 c7 49 81 3d 7d 1a 7b 3d fe 6e 02 3e b6 dc d1 3d
       0.063129 0.061304558 0.12737653 0.102471754
0000c0 fd fe 17 3d 2c 72 49 3d 17 49 44 3d 28 be 2c 3b
       0.03710841 0.04918115 0.047921266 0.002635846
0000d0 b9 91 90 3d ad c6 82 3d f8 33 58 3d a6 dd de 3d
       0.070590444 0.06385551 0.052783936 0.1088212
0000e0 be 89 65 3d 9a fe 5d 3d c4 42 b0 bc ef 31 93 bc
       0.056039564 0.054197885 -0.021516211 -0.017968146
0000f0 f9 b7 05 3e c1 55 ec 3d ec b1 e7 3d f4 fd 63 3d
       0.13058461 0.11539794 0.11313233 0.05566211

arith.constant2 f4 [3]
000000 0c d9 93 3b f0 cd 5d 3d cf 35 8e bd
       0.004511958 0.054151475 -0.06943857

arith.constant3 f4 [3, 64]
000000 1a a0 3e 3e 6d 0d f1 3e 12 92 97 be 62 c6 c4 be
       0.18615761 0.47080556 -0.2960363 -0.38432604
000010 44 f6 05 3f ed 3a e2 3e 51 23 05 3f a5 d0 9a be
       0.52328897 0.44185582 0.52007014 -0.30237308
000020 fc 02 09 bf 4f 84 de be 7c 27 98 be 69 ba 1f bf
       -0.5352018 -0.43460318 -0.29717624 -0.62393814
000030 0e bc 43 be 36 b6 c7 be 89 00 9f 3e ac 81 14 bf
       -0.19114706 -0.39006203 0.31055096 -0.58010364
000040 1e ef 28 3e 46 d4 54 3e cb d1 98 bd a8 f1 53 3d
       0.16497466 0.20784101 -0.0746189 0.051744133
000050 20 ca be be 14 2e c6 be fd 54 cc be 11 5e 1d be
       -0.37263584 -0.3870703 -0.3990859 -0.15367915
000060 ab 69 af be 49 a2 e4 be 6b d3 63 be d8 87 a6 be
       -0.34260306 -0.44655064 -0.22248618 -0.32525516
000070 14 32 f4 be 17 e3 f7 3e 11 5d d2 be 0b 47 ed be
       -0.47694457 0.48415443 -0.4108663 -0.46343264
000080 02 9c 82 3e 15 b0 07 bf 06 ef bb bd 91 6f 81 be
       0.2550965 -0.53003055 -0.091764495 -0.2528043
000090 5d 09 dd be 92 46 d4 bd d8 4c de be 84 31 ea 3d
       -0.43171206 -0.10365023 -0.43418002 0.114352256
0000a0 35 f8 f6 bd a6 ee 02 bd 0a 36 e6 3e c9 e0 6e 3e
       -0.120590605 -0.031965874 0.44963104 0.23327936
0000b0 bc 3e f3 be 10 c6 aa bd ac c8 c3 3e 4b 5b b8 3e
       -0.475088 -0.08338559 0.38239038 0.3600715
0000c0 14 d9 9d 3e 07 9c 03 bf 84 f4 9c be b9 c3 39 be
       0.3082968 -0.51409954 -0.306553 -0.18141069
0000d0 ed 14 d5 3c 42 6f a0 be e5 98 de 3e e3 7b a7 3d
       0.026010955 -0.31334883 0.43476024 0.081779264
0000e0 84 dc 0d bf 28 2b c0 3e ea 1e 27 3e 30 1e ad bb
       -0.55414605 0.37532926 0.16320387 -0.0052831396
0000f0 6b cc 97 3e 0e 33 ce 3c de 04 15 3e 7a 48 10 bf
       0.29648146 0.02517083 0.14552638 -0.5636059
000100 c6 03 c8 3e ee 9f cb be 6c 58 bb be 09 16 36 3d
       0.3906538 -0.39770454 -0.36590898 0.044454608
000110 9d 63 9c be 72 2d 15 be 03 44 fd bd b5 e7 9f 3e
       -0.3054475 -0.14568117 -0.12366488 0.31231466
000120 a2 2b 9c bd 9f 4a 45 bd a1 7f 84 be 12 48 f5 3b
       -0.0762551 -0.048166867 -0.25878623 0.007485398
000130 f0 a7 de be d0 e2 c6 3e 52 a8 ed be ad 14 05 be
       -0.434875 0.3884492 -0.4641748 -0.12996168
000140 1c 86 d8 bd dc 4e a9 3e 23 66 a1 bd 95 0f aa be
       -0.10572454 0.33067977 -0.07880809 -0.33215013
000150 e8 eb 84 3e 78 8d a6 3e 94 2d 99 be b5 1d 91 3e
       0.25961232 0.32529807 -0.29917586 0.28342977
000160 b7 d2 8f be 2b f0 d8 be 03 e7 d5 3e 05 09 af 3e
       -0.2809045 -0.42370734 0.4177781 0.3418657
000170 d0 4a 1e be bc 79 e5 be 92 8c d7 be b2 28 d3 3d
       -0.15458226 -0.44819438 -0.42099434 0.103104964
000180 d7 7b 10 3a e1 ab 15 3e 93 07 d3 be 90 92 68 3e
       0.00055116176 0.14616348 -0.41216716 0.22712159
000190 9f 34 10 be 54 64 c9 be 03 5e 0c 3e 81 cc 94 3d
       -0.14082573 -0.39334357 0.13707738 0.072655685
0001a0 7b cd 70 3e 3f c4 a5 be 10 01 23 bd 33 9d a7 be
       0.23515885 -0.32376286 -0.039795935 -0.3273712
0001b0 5d d9 e5 3c 8d 14 88 3e 0d 38 c1 3e e7 0f a9 3e
       0.028057748 0.2657818 0.37738076 0.33019945
0001c0 3d e3 67 be a0 7b 8b 3e 52 6c a5 3e 0a 59 25 be
       -0.22645278 0.27242756 0.32309204 -0.16147247
0001d0 55 dc 4d 3e 47 a5 cc 3d 82 73 0c be 18 58 1c 3e
       0.20103581 0.09992462 -0.13715938 0.1526798
0001e0 72 17 9b be ed 25 b1 be 2e 70 1f be 68 0f 05 be
       -0.30291325 -0.34599248 -0.15570137 -0.12994158
0001f0 6a 88 cb bd de a3 50 3d 7b ba a0 3d f9 70 28 3c
       -0.09938128 0.050937526 0.07848068 0.010280841
000200 c8 6c 80 be 34 ec cb bd b0 24 de ba a4 4a a3 be
       -0.25082994 -0.099571615 -0.001694819 -0.31892884
000210 2b 1b e0 bc 33 c5 c1 bc c6 d4 b1 be 00 7b 76 3e
       -0.027356705 -0.023653602 -0.34732646 0.24070358
000220 37 9e 8f 3e a5 db 5b be 45 a6 be 3e 84 e2 15 3e
       0.28050396 -0.21470506 0.3723623 0.1463719
000230 a1 80 fb 3e a5 72 fe 3d d6 70 64 be 20 79 94 3d
       0.49121574 0.124242105 -0.22308668 0.07249665
000240 9c 78 df be bb bd 05 bf fc fb 0b bf c0 77 2b 3e
       -0.43646705 -0.5224263 -0.5468137 0.167449
000250 01 a1 7e 3e 54 d7 d7 3e bf d2 b7 3e d7 89 c5 be
       0.24866106 0.4215647 0.35902974 -0.38581726
000260 75 21 ab 3e 60 92 bf 3e f5 27 05 be 41 d8 c6 be
       0.33423963 0.37416363 -0.13003524 -0.38836864
000270 c2 ca 82 3e a3 44 c2 be 50 52 26 3e dd c0 6f 3e
       0.25545317 -0.3794299 0.16242337 0.23413415
000280 19 9b e1 be 04 fa fa bd 2b 59 dc 3e d2 5e 9d be
       -0.44063643 -0.12254718 0.4303678 -0.30736405
000290 87 f7 c6 3e 04 da 51 3e fa 54 05 be 95 db d6 be
       0.38860723 0.20493323 -0.13020697 -0.41964403
0002a0 d2 dd b3 be 6f 7b a0 3e f4 c1 de be d0 74 b6 be
       -0.35130173 0.31344172 -0.4350735 -0.35635996
0002b0 8b 4c c1 3d 78 6f 2d be 99 82 72 bd bc 33 ac be
       0.094384275 -0.16937053 -0.05920658 -0.3363322
0002c0 e1 b0 58 be 32 b3 8d 3e f1 0e 93 3e 78 93 f8 3e
       -0.21161224 0.27675778 0.28722337 0.4855001
0002d0 47 f5 e3 be d7 87 ec 3c 70 ce 5c be 6c 26 09 bf
       -0.4452307 0.028873367 -0.21563125 -0.5357425
0002e0 62 23 ae 3d 94 0b e4 be 98 5e 60 bd 67 89 fe 3e
       0.085028425 -0.44540083 -0.05477771 0.49714205
0002f0 3d ef 09 bf 0f 50 0f bf fb 26 0a bf 1b 41 33 3e
       -0.53880674 -0.55981535 -0.5396573 0.17505305

tfl.pseudo_qconst i1 [64, 128]
000000 fa f7 d4 d3 0f 1e 66 5a 1d e9 54 14 1d d4 7b fb
       -6 -9 -44 -45 15 30 102 90 29 -23 84 20 29 -44 123 -5
000010 c4 b4 27 d1 6b 32 ee 08 4c 05 5d 21 f7 dc 1f 6e
       -60 -76 39 -47 107 50 -18 8 76 5 93 33 -9 -36 31 110
000020 44 e2 3f f2 b7 e1 e1 44 19 d6 13 2b f5 29 76 06
       68 -30 63 -14 -73 -31 -31 68 25 -42 19 43 -11 41 118 6
000030 ec 35 21 ae 2f f6 5a 22 f3 f8 7f 07 39 22 10 cc
       -20 53 33 -82 47 -10 90 34 -13 -8 127 7 57 34 16 -52
000040 0e 60 2c ed 43 33 f3 05 de b2 cf 43 2b dd 0c 6d
       14 96 44 -19 67 51 -13 5 -34 -78 -49 67 43 -35 12 109
000050 d5 54 fc ff 1f 21 e2 b1 ea fc cc 00 33 db 60 03
       -43 84 -4 -1 31 33 -30 -79 -22 -4 -52 0 51 -37 96 3
000060 78 06 c0 04 73 bc c7 bf b5 ce c4 54 26 6d 36 4a
       120 6 -64 4 115 -68 -57 -65 -75 -50 -60 84 38 109 54 74
000070 d8 e3 5c 03 08 47 60 e6 f3 0a 4b 51 ca 05 2d 24
       -40 -29 92 3 8 71 96 -26 -13 10 75 81 -54 5 45 36
000080 b3 46 10 c1 a9 17 d7 4a ac 32 71 e1 e3 0c 8d 01
       -77 70 16 -63 -87 23 -41 74 -84 50 113 -31 -29 12 -115 1
000090 18 56 c9 32 18 35 bb 05 6c 2f 52 f3 09 91 1c 96
       24 86 -55 50 24 53 -69 5 108 47 82 -13 9 -111 28 -106
0000a0 2e 5f 45 f1 ee 65 b5 81 b0 22 52 32 52 fd b5 d3
       46 95 69 -15 -18 101 -75 -127 -80 34 82 50 82 -3 -75 -45
0000b0 a6 bd 9c bd 54 94 b9 f8 a5 d8 06 fa 58 ce 6e 1d
       -90 -67 -100 -67 84 -108 -71 -8 -91 -40 6 -6 88 -50 110 29
0000c0 35 fe 4e e6 03 96 33 05 e7 1f 6e 4f 31 4f de eb
       53 -2 78 -26 3 -106 51 5 -25 31 110 79 49 79 -34 -21
0000d0 d8 b3 af a0 f4 c2 b6 cd 52 52 03 1b 2a a2 f4 05
       -40 -77 -81 -96 -12 -62 -74 -51 82 82 3 27 42 -94 -12 5
0000e0 d0 ac 08 fd 0c 02 a3 d7 86 77 ca 56 35 f5 06 15
       -48 -84 8 -3 12 2 -93 -41 -122 119 -54 86 53 -11 6 21
0000f0 b4 d8 a6 0d ba e6 34 b6 5a 43 bf 0d af e8 bb c8
       -76 -40 -90 13 -70 -26 52 -74 90 67 -65 13 -81 -24 -69 -56

sequential_1/dense_1/MatMul i1 [128, 5000]
000000 ef 08 f8 ed f5 f9 f2 1e f6 f1 14 21 16 e4 e5 07
       -17 8 -8 -19 -11 -7 -14 30 -10 -15 20 33 22 -28 -27 7
000010 ef 09 0d 03 f8 05 fc 02 ee ea fb e3 0f f4 f5 00
       -17 9 13 3 -8 5 -4 2 -18 -22 -5 -29 15 -12 -11 0
000020 28 ff 06 0d e9 f9 fb 18 e1 04 dd d9 e9 e2 00 f5
       40 -1 6 13 -23 -7 -5 24 -31 4 -35 -39 -23 -30 0 -11
000030 01 ec 07 09 ef 0a ff 07 e4 04 0f 02 d7 f2 f7 f5
       1 -20 7 9 -17 10 -1 7 -28 4 15 2 -41 -14 -9 -11
000040 14 fa e2 e9 ef 09 0b ec f3 e7 02 dd da 0c 0d 10
       20 -6 -30 -23 -17 9 11 -20 -13 -25 2 -35 -38 12 13 16
000050 0c 0c 2d fc 0b f7 f5 fa ff 16 22 ed 0a 07 14 13
       12 12 45 -4 11 -9 -11 -6 -1 22 34 -19 10 7 20 19
000060 10 08 e1 ff 12 15 d9 fe f1 1d 0e ec fb f1 0e 1b
       16 8 -31 -1 18 21 -39 -2 -15 29 14 -20 -5 -15 14 27
000070 06 d5 0e 1b 01 09 ff e8 f0 db e1 16 ea eb 06 e8
       6 -43 14 27 1 9 -1 -24 -16 -37 -31 22 -22 -21 6 -24
000080 03 f0 1d f9 18 ff 24 f8 12 28 08 06 12 00 e1 1d
       3 -16 29 -7 24 -1 36 -8 18 40 8 6 18 0 -31 29
000090 03 da 07 f3 07 01 f5 f4 fb f0 0b 03 09 0e f0 01
       3 -38 7 -13 7 1 -11 -12 -5 -16 11 3 9 14 -16 1
0000a0 fc f7 06 f4 2d fe 07 f8 f8 0d 08 f6 03 f7 e7 10
       -4 -9 6 -12 45 -2 7 -8 -8 13 8 -10 3 -9 -25 16
0000b0 25 07 01 ec db f7 11 ff 1c 19 e0 07 f2 e8 f7 ef
       37 7 1 -20 -37 -9 17 -1 28 25 -32 7 -14 -24 -9 -17
0000c0 fa 15 03 f3 0c df 14 fb 07 12 e0 ec e7 0c 14 16
       -6 21 3 -13 12 -33 20 -5 7 18 -32 -20 -25 12 20 22
0000d0 fd 16 2b 09 2a 22 fe ee 17 fc 00 e5 f3 26 1f ef
       -3 22 43 9 42 34 -2 -18 23 -4 0 -27 -13 38 31 -17
0000e0 01 16 1f ef 22 fe fc 19 07 f5 fb 0d 0c d5 fd f3
       1 22 31 -17 34 -2 -4 25 7 -11 -5 13 12 -43 -3 -13
0000f0 dd f2 27 eb ff 29 f7 09 05 03 e7 11 d9 fb fa f3
       -35 -14 39 -21 -1 41 -9 9 5 3 -25 17 -39 -5 -6 -13
